src/baselines/CSE-CIC-IDS2018/model.pth (torch, 91182 bytes, 19 tensors)

layers.0.weight f4 [76]
0	0x40971d7d	4.7223496
1	0x40958b45	4.6732507
2	0x3fda6621	1.7062417
3	0xbe843316	-0.25820225
4	0xbfb7ee1e	-1.4369543
5	0x400a4d16	2.160955
6	0x3fb2794c	1.3943267
7	0xbfef27ee	-1.868406
8	0x3fe59555	1.7936198
9	0x3fc2f9f1	1.5232526
10	0x3fd70a71	1.6800061
11	0xbe477180	-0.1947689
12	0xbf42d4ff	-0.76106256
13	0x4092749e	4.5767355
14	0xc00439ee	-2.0660357
15	0x40856396	4.1684065
16	0xbf25f6b5	-0.6482957
17	0xbf0a842b	-0.5410792
18	0xbfbaea5c	-1.4602771
19	0xbf8a942f	-1.0826472
20	0x40b2603a	5.5742464
21	0x40a9bd94	5.304392
22	0x3e464d3f	0.19365405
23	0xc013cedd	-2.309501
24	0xbe3f15fd	-0.18660732
25	0x3fa58288	1.293046
26	0xbedcef12	-0.43151146
27	0xbf031e41	-0.5121804
28	0x3faf9467	1.3717164
29	0x3d4c2968	0.049844176
30	0x3f800000	1.0
31	0x4036bab6	2.855146
32	0x3f800000	1.0
33	0x40b0fe6f	5.531059
34	0x408215c6	4.065158
35	0xc023c644	-2.5589762
36	0x404bff90	3.1874733
37	0x3f9e5534	1.2369752
38	0x3f804c0b	1.0023206
39	0xbfabca00	-1.342102
40	0xbe3e338d	-0.18574353
41	0xbee27a8e	-0.44234127
42	0x3f9440bb	1.1582254
43	0x3fad6870	1.3547497
44	0x4008e289	2.1388266
45	0x4023db5d	2.5602639
46	0x406d7209	3.7100852
47	0x401e3ee0	2.4725876
48	0x402cf374	2.7023592
49	0xbfbc6f25	-1.4721419
50	0x401ff7f2	2.4995084
51	0xbfc2c21d	-1.5215489
52	0xbf74c91c	-0.9561937
53	0xbf636fa3	-0.8884222
54	0x3f800000	1.0
55	0x3f800000	1.0
56	0x3f800000	1.0
57	0x3f800000	1.0
58	0x3f800000	1.0
59	0x3f800000	1.0
60	0xc069126a	-3.641749
61	0xc044ac70	-3.0730247
62	0x3ddea1e2	0.108707204
63	0x3fda3605	1.7047735
64	0x4096a5c2	4.707734
65	0x4067a637	3.61952
66	0x3fc7d9b2	1.561331
67	0x404f356d	3.2376359
68	0x3f58f38a	0.8474661
69	0x3f524e7d	0.82151014
70	0x3f099468	0.53742075
71	0x3ebe08ea	0.37116176
72	0x40f7ca72	7.7434626
73	0x3ff5b98f	1.9197253
74	0x3ee9b1a2	0.45643336
75	0x412f8a81	10.971314

layers.0.bias f4 [76]
0	0x3b59a5e9	0.0033210462
1	0xbdb77b28	-0.08959037
2	0xbc135483	-0.008992317
3	0x3db926c3	0.09040596
4	0xbf8512c0	-1.0396347
5	0xbeb30e85	-0.34972015
6	0x3fb80c96	1.4378841
7	0xbeb3ac0a	-0.35092193
8	0xbe088247	-0.13330947
9	0x3e5eaa9e	0.21744773
10	0x3eb70945	0.3574926
11	0xbea57f44	-0.32323658
12	0xbed04142	-0.40674788
13	0x3fdaad79	1.708419
14	0xbe4c99f1	-0.19980599
15	0x3b788bd0	0.0037925132
16	0xbf71e3e2	-0.94488347
17	0xbe5dd94c	-0.21664923
18	0xbed21dd3	-0.4103838
19	0x3f2d1097	0.6760344
20	0xbed3b1ab	-0.41346487
21	0xbaaf6cb4	-0.0013383836
22	0x3d1a77f0	0.037712038
23	0xbd964c15	-0.0733873
24	0xbf24aedf	-0.6432933
25	0xbf3951c4	-0.7239039
26	0xbd092088	-0.03347829
27	0x3cb1f7b1	0.021724554
28	0x3f181e5e	0.59421337
29	0x3f58a8a1	0.8463231
30	0xbdfaabcb	-0.12239798
31	0xbeb62495	-0.35574785
32	0x3d9bf96b	0.07615932
33	0xbe4bfd1d	-0.19920774
34	0x3da959b6	0.08269064
35	0xbed54013	-0.41650447
36	0xbe70379c	-0.23458713
37	0x3fae85d3	1.363459
38	0x3e9b5091	0.30334905
39	0xbfa400dc	-1.2812762
40	0xbd6c9903	-0.05776311
41	0xbe567841	-0.2094431
42	0x3fc8ff13	1.5702842
43	0x3fc14608	1.5099497
44	0x3f3db4f6	0.7410425
45	0xbf970eb2	-1.180136
46	0x401a6824	2.4126062
47	0x4020ceaa	2.5126138
48	0xc00e2bc2	-2.2214208
49	0x3c855eca	0.01628055
50	0xbed1f764	-0.41009057
51	0xbe634209	-0.22193159
52	0xbe921d21	-0.2853785
53	0xbe6311e5	-0.22174795
54	0xbeb22d73	-0.348003
55	0xbe512129	-0.20422806
56	0xbd273359	-0.040820453
57	0x3e003727	0.12521039
58	0x3fcceb13	1.6009239
59	0x3ca49f3c	0.02009546
60	0xbd8d1a98	-0.06889838
61	0x3e1058e5	0.1409641
62	0xbe8aae2b	-0.27086005
63	0xbeb75059	-0.35803488
64	0x3f848a7f	1.0354766
65	0x3f65bbe2	0.8973981
66	0x3d49e711	0.049292628
67	0xbd832145	-0.0640283
68	0x4005e988	2.0923786
69	0x3f918b52	1.1370642
70	0x3e3b208c	0.18274134
71	0x3f73279a	0.949823
72	0x3e2904c3	0.16505723
73	0xbfb7a0fc	-1.4346004
74	0xbf3e10bf	-0.742443
75	0x3f4bacdd	0.79560643

layers.0.running_mean f4 [76]
0	0x3f7ff7b3	0.99987334
1	0x3770f737	1.4362674e-05
2	0x381945cb	3.6543042e-05
3	0x36267c0c	2.4808132e-06
4	0x37453c42	1.1756145e-05
5	0x3b33f60e	0.0027459892
6	0x3c1555e4	0.009114716
7	0x3b345853	0.0027518466
8	0x3b414c40	0.0029494911
9	0x3bb94a82	0.005654634
10	0x3cb3d208	0.021950737
11	0x3b616bdc	0.0034396565
12	0x3bbb96fc	0.005724786
13	0x3954c456	0.00020291036
14	0x3c4abdf9	0.012374395
15	0x3f7ff6eb	0.9998614
16	0x36178a57	2.2581278e-06
17	0x3eea8ad7	0.4580905
18	0x3f7ff806	0.9998783
19	0x3f7ff7af	0.9998731
20	0x3f7ff6f3	0.9998619
21	0x362e085f	2.5932893e-06
22	0x3eea8ad2	0.45809036
23	0x3f7ff808	0.9998784
24	0x3d9810ca	0.07425077
25	0x3c17e9eb	0.009272079
26	0x3c2cea1f	0.010553866
27	0x3ccd41bd	0.02505576
28	0x3b900535	0.004395152
29	0x3d4fa852	0.050697632
30	0x00000000	0.0
31	0x39a4f5a7	0.00031463543
32	0x00000000	0.0
33	0x382580bc	3.945896e-05
34	0x382149dc	3.8454178e-05
35	0x3c008f33	0.007846641
36	0x3c5e8c4a	0.013583252
37	0x3c14a445	0.009072368
38	0x3bbd3898	0.0057745688
39	0x3b9021a6	0.0043985425
40	0x3ba06b2c	0.0048955884
41	0x3898401c	7.259866e-05
42	0x3bb033a9	0.005377252
43	0x3d4fa852	0.050697632
44	0x3e2e7871	0.17038132
45	0x3ed3341d	0.41250697
46	0x3e7f36aa	0.24923196
47	0x3d203a65	0.03911819
48	0x39a4f5a7	0.00031463543
49	0x3e2e7871	0.17038132
50	0x3ae572da	0.0017505542
51	0x3ba5d34a	0.005060588
52	0x3b345853	0.0027518466
53	0x3b616bdc	0.0034396565
54	0x00000000	0.0
55	0x00000000	0.0
56	0x00000000	0.0
57	0x00000000	0.0
58	0x00000000	0.0
59	0x00000000	0.0
60	0x3770f737	1.4362674e-05
61	0x36267c0c	2.4808132e-06
62	0x381945cb	3.6543042e-05
63	0x37453c42	1.1756145e-05
64	0x3de025e5	0.10944728
65	0x3e25f206	0.16205606
66	0x36df9196	6.6628663e-06
67	0x3e93bd34	0.28855288
68	0x3a779289	0.00094441377
69	0x3a05db9a	0.00051062705
70	0x3abf91a6	0.001461555
71	0x3a45133a	0.00075178186
72	0x37a5e101	1.9774308e-05
73	0x3504ebc6	4.951693e-07
74	0x37010157	7.689311e-06
75	0x37ff62b8	3.0444338e-05

layers.0.running_var f4 [76]
0	0x30ea3b66	1.7042623e-09
1	0x31fb59d5	7.315274e-09
2	0x340b9033	1.2997843e-07
3	0x2e0855a2	3.0998877e-11
4	0x342b71a5	1.596696e-07
5	0x378a35ee	1.6475995e-05
6	0x3986ab52	0.00025686115
7	0x3708ebf6	8.161171e-06
8	0x37b4002d	2.1457754e-05
9	0x388651e1	6.404869e-05
10	0x3aaed646	0.0013339005
11	0x37c89054	2.3909066e-05
12	0x38b6dd3a	8.719643e-05
13	0x36bf983f	5.7099674e-06
14	0x3b192330	0.002336692
15	0x30017221	4.7092114e-10
16	0x2e8f5795	6.518445e-11
17	0x2f11f8bc	1.3276041e-10
18	0x2fc62d1d	3.6048045e-10
19	0x30e8bae8	1.6933344e-09
20	0x30042022	4.8066984e-10
21	0x2eca2091	9.1916814e-11
22	0x2f109825	1.3150776e-10
23	0x2fc94ba1	3.6615425e-10
24	0x3d59a3a0	0.05313456
25	0x3b172e56	0.002306839
26	0x3ad181a3	0.0015984069
27	0x3c0b0daa	0.0084871445
28	0x3b07b763	0.0020708672
29	0x3d444f4a	0.04792718
30	0x00000004	6e-45
31	0x39a41111	0.00031293233
32	0x00000004	6e-45
33	0x3332ae9e	4.1602668e-08
34	0x340cc393	1.3109666e-07
35	0x3aae66f8	0.0013305834
36	0x3b50a497	0.0031836384
37	0x3984c730	0.00025325408
38	0x3886268c	6.396798e-05
39	0x380ad201	3.3097345e-05
40	0x384a4544	4.822506e-05
41	0x32c77a11	2.3222158e-08
42	0x3baf6a4a	0.005353247
43	0x3d444f4a	0.04792718
44	0x3e0dd418	0.13850439
45	0x3e779206	0.24176797
46	0x3e3a91f7	0.18219744
47	0x3d1a1d9c	0.037625894
48	0x39a41111	0.00031293233
49	0x3e0dd418	0.13850439
50	0x368d9e02	4.220522e-06
51	0x3812d477	3.5006986e-05
52	0x3708ebf6	8.161171e-06
53	0x37c89054	2.3909066e-05
54	0x00000004	6e-45
55	0x00000004	6e-45
56	0x00000004	6e-45
57	0x00000004	6e-45
58	0x00000004	6e-45
59	0x00000004	6e-45
60	0x31fb59d5	7.315274e-09
61	0x2e0855a2	3.0998877e-11
62	0x340b9033	1.2997843e-07
63	0x342b71a5	1.596696e-07
64	0x3d462ff1	0.048385564
65	0x3df701bb	0.12060877
66	0x2f0a31b4	1.2568685e-10
67	0x3c57a33a	0.013161475
68	0x38eb9986	0.00011234269
69	0x3885b92e	6.3764266e-05
70	0x39682973	0.00022140685
71	0x38c8e6ed	9.5797564e-05
72	0x314e4f46	3.0022007e-09
73	0x2e39b63c	4.2225987e-11
74	0x2ff69e08	4.4859427e-10
75	0x31fb9fab	7.3232136e-09

layers.1.weight f4 [128, 76]
0	0xbe84f5ac	-0.25968683
1	0xc03fc2b9	-2.99626
2	0xbe9d8bd1	-0.30770734
3	0xbf802a32	-1.0012877
4	0xbe8f7f36	-0.28026742
5	0x3f7dd975	0.9915994
6	0xbe9eccd1	-0.31015638
7	0x40827d98	4.0778313
8	0x3ee096ce	0.43865055
9	0x4017bfb5	2.3710759
10	0x3f0b1e74	0.5434334
11	0xbf8021c6	-1.0010307
12	0xbf3f003f	-0.7460975
13	0x3d0421b4	0.032258704
14	0x3f55c077	0.83496803
15	0xbedaa449	-0.42703465
16	0xbdc587c1	-0.09645034
17	0xbfa368f1	-1.27664
18	0xbfeeaab3	-1.8645843
19	0xbf3e4371	-0.7432166
20	0x3e7596fb	0.23983376
21	0xbf8023f5	-1.0010973
22	0x3fcf5091	1.6196462
23	0x3efb1aa0	0.4904375
24	0xbdf18e8c	-0.11794767
25	0x3ffb048d	1.9610764
26	0x3f348b70	0.70525265
27	0x3f039013	0.51391715
28	0x3ee303a6	0.4433872
29	0x40082bb3	2.1276672
30	0xbf1c0290	-0.6094141
31	0xbfecd62e	-1.8502862
32	0xbf4c6612	-0.79843247
33	0x3f04ee95	0.5192655
34	0x3f153ac4	0.58292794
35	0x3dc562bb	0.09637972
36	0x3d8a8eeb	0.06765541
37	0xbe8feee0	-0.28111935
38	0x3fbb02db	1.4610246
39	0xbd35df3c	-0.044402346
40	0x3b7b7e55	0.003837486
41	0x3e66680c	0.22500628
42	0x3dca487b	0.09877106
43	0xbea3a25d	-0.3195981
44	0xc025953a	-2.587233
45	0x40867224	4.201433
46	0xbfd5026d	-1.6641365
47	0xbfb1cc19	-1.3890411
48	0x3c91aeec	0.017783605
49	0x40816462	4.0435038
50	0x3f92190b	1.1413893
51	0xbf0a2331	-0.5395995
52	0x3f3de172	0.7417213
53	0xbf114880	-0.5675125
54	0x3f904ad6	1.1272838
55	0x3f4a83b1	0.79107195
56	0x3f668c6e	0.9005803
57	0x3fe13191	1.7593251
58	0xbf29b53c	-0.66292167
59	0x3fb11658	1.3834944
60	0xbf91898c	-1.1370101
61	0x3f8dfc58	1.1092634
62	0xbdffc989	-0.12489612
63	0x3f61f99a	0.88271487
64	0x3cb5d27a	0.02219509
65	0xbfc443a4	-1.5333142
66	0x3fa37eb8	1.2773046
67	0x40151948	2.329668
68	0x3ed9e99c	0.42561042
69	0x3fef6f6a	1.8705876
70	0x3f716607	0.94296306
71	0x3e180ca7	0.14848576
72	0x3fd7ed8d	1.686937
73	0x3dd660f6	0.104677126
74	0x3d8fbcbd	0.07018421
75	0xbf92f0fb	-1.1479791
76	0x3f209d01	0.6273957
77	0xbe7df0e1	-0.2479892
78	0xbfbfcc90	-1.4984303
79	0xbfd75da5	-1.6825453
80	0x3f460d40	0.7736397
81	0xbeda9231	-0.4268966
82	0xbfa46ae9	-1.2845126
83	0x3fad58cf	1.3542727
84	0xbe8cef9e	-0.27526563
85	0xbf39cd53	-0.72578925
86	0x3e1b2069	0.15149082
87	0x3f966db7	1.1752232
88	0xc00f3e54	-2.2381792
89	0xbffc5075	-1.9712054
90	0x3f80faf3	1.0076584
91	0x3e5927d4	0.212066
92	0x3ea81068	0.32825017
93	0xbfe50c0d	-1.7894303
94	0xbf563ceb	-0.83686703
95	0x3f4751c6	0.7785915
96	0x3fc29507	1.520173
97	0xbf0deec2	-0.5544244
98	0x3feeb624	1.8649335
99	0x3f624cd0	0.88398457
100	0x3da510b9	0.0805983
101	0x3f338cf8	0.70136976
102	0xbf64b66e	-0.89340866
103	0x3f5a8062	0.85352147
104	0x402d8971	2.7115138
105	0x3f102890	0.56311893
106	0xc04b7bb6	-3.1794257
107	0x3faf0e1c	1.3676181
108	0xbe656f11	-0.2240565
109	0x3fc10d26	1.5082138
110	0xbfd96a69	-1.6985599
111	0x3f446695	0.7671903
112	0xbe890a75	-0.2676579
113	0xbf174382	-0.59087384
114	0xbfbfa143	-1.4971088
115	0x3f4c41e1	0.79788023
116	0xbfa98f27	-1.3246812
117	0x3e818738	0.25298476
118	0xbdcfc2cb	-0.10144576
119	0x3eba3290	0.363667
120	0xbf114894	-0.5675137
121	0xbf3b8ab2	-0.7325851
122	0xbf891abe	-1.0711286
123	0xbf8ec9ef	-1.1155375
124	0x403fa141	2.9942172
125	0xbfa6d147	-1.3032616
126	0xbf7e8a25	-0.9942954
127	0x3f4f8499	0.810617
128	0xbe43eff2	-0.191345
129	0x3fac949d	1.3482853
130	0x3f0c1b07	0.5472874
131	0xbf805cf4	-1.0028367
132	0x402cb44a	2.698504
133	0x3f24d11c	0.64381576
134	0xbff01de8	-1.8759127
135	0x40002714	2.0023851
136	0xbfa7d1dd	-1.311092
137	0xc0017d74	-2.023282
138	0xbfacf0a3	-1.3510936
139	0x3fc8b6d9	1.5680801
140	0x3d58eb6e	0.0529589
141	0xbdf7de7a	-0.12102981
142	0xbe04987e	-0.12948796
143	0xbf86e395	-1.0538203
144	0xbf47bd15	-0.7802289
145	0x3effc21c	0.4995278
146	0xbee532ef	-0.44765422
147	0xbf1080f4	-0.56446767
148	0x4025ee3c	2.5926657
149	0x3fdb64d5	1.7140146
150	0x3fe19104	1.762238
151	0x3ff89056	1.9419048
152	0xbf256e29	-0.64621216
153	0xbf9deb9e	-1.233753
154	0xbe138e55	-0.14409764
155	0xbe5e214e	-0.21692392
156	0xbeed7e80	-0.46385574
157	0xbe9257b2	-0.2858253
158	0x3fd3d340	1.6548843
159	0x401f6903	2.4907844
160	0xbf04a47a	-0.5181347
161	0x3ea2534f	0.31704184
162	0x3f2c53f7	0.6731562
163	0xbd90593d	-0.07048271
164	0x4035d2a5	2.8409817
165	0x3f6a6a35	0.9156831
166	0xc0084c1c	-2.1296453
167	0x3f8d2706	1.1027534
168	0x3eb68a44	0.35652363
169	0xbfa4beb1	-1.2870694
170	0xbfb5a65d	-1.4191395
171	0x3f4ab843	0.7918741
172	0xbf1a47a3	-0.6026556
173	0xbf4a5ba6	-0.79046094
174	0xbf1cca04	-0.6124575
175	0xbf0fcc90	-0.5617151
176	0x3fa4ae39	1.2865669
177	0x3f6b2e36	0.9186739
178	0xbe6c970a	-0.23104492
179	0x3f3a8889	0.72864586
180	0x3f07a65e	0.5298823
181	0x3f2c7a3d	0.6737402
182	0x3f599f53	0.85008734
183	0xbf60187c	-0.8753736
184	0x3ee096c2	0.4386502
185	0xbfe33f57	-1.7753705
186	0xbfc95a50	-1.5730686
187	0xbf47f614	-0.7810986
188	0x3fc7100c	1.5551772
189	0x3fb51ee2	1.415005
190	0x3fb31e40	1.3993607
191	0xbe8dd139	-0.27698687
192	0x3fbcacff	1.4740294
193	0xbe29003c	-0.16503996
194	0x3f7a3f63	0.9775297
195	0x3e9db9d1	0.3080583
196	0x3e2f8ef8	0.17144382
197	0x401d1996	2.4546866
198	0xc05df1bb	-3.467879
199	0xbfe8b671	-1.8180677
200	0xbf2f8996	-0.68569314
201	0x400f8ca6	2.2429595
202	0x40074645	2.113664
203	0x401fc663	2.4964836
204	0x4048fd07	3.1404436
205	0x3f865afa	1.0496514
206	0xbf2be47b	-0.6714551
207	0xbfd9ae58	-1.700633
208	0xbfb0ba8b	-1.3806928
209	0xbfced2ec	-1.6158118
210	0x3f779b76	0.9672159
211	0xbec54a9b	-0.38533482
212	0x3f96e0f0	1.1787395
213	0x3f314596	0.69246805
214	0xbfccab2d	-1.5989739
215	0x3ebc48be	0.36774248
216	0xc082f3ab	-4.0922446
217	0x402b4b12	2.676457
218	0x3eb049e9	0.3443139
219	0x3f124f23	0.57152003
220	0x3e44a80d	0.19204731
221	0x3ed88ac2	0.42293364
222	0xbf232813	-0.63733023
223	0x3fa159e0	1.2605553
224	0xbf1c8c52	-0.6115161
225	0xbf43649c	-0.7632539
226	0xbf61418b	-0.87990636
227	0x3e45b10d	0.19305821
228	0xbfe39a1c	-1.7781405
229	0xc03fb50e	-2.9954257
230	0xbfb3a417	-1.4034451
231	0xbfd3eb91	-1.6556264
232	0x3faea789	1.3644878
233	0x3eb00648	0.34379792
234	0xbf2544d5	-0.64558154
235	0xbec72322	-0.38893992
236	0x3df16915	0.11787621
237	0x3ecd8c5d	0.4014615
238	0x3cbb6a84	0.022877939
239	0xbf685bea	-0.9076525
240	0xbf488716	-0.78331125
241	0xc0365552	-2.8489575
242	0x4009d370	2.1535301
243	0x3ff0a71b	1.8800997
244	0x3da940d3	0.08264317
245	0xbf050772	-0.51964486
246	0x3d677f65	0.056517977
247	0x3e5cd69c	0.21566242
248	0xbfd90cbe	-1.6957014
249	0x3ed2fed9	0.41210058
250	0x3fd5a674	1.6691422
251	0x3fc9169c	1.5710025
252	0x3fde5367	1.7369202
253	0x3fa86834	1.31568
254	0xbff0e995	-1.8821284
255	0x3fc07f79	1.5038902

layers.1.bias f4 [128]
0	0xbda8d804	-0.08244327
1	0xbe04999a	-0.1294922
2	0x35b0f19c	1.318334e-06
3	0xc02b3053	-2.6748245
4	0xbfd156c3	-1.6354603
5	0xbf164633	-0.58700866
6	0xbfdda60b	-1.7316297
7	0xbf30aa83	-0.6901018
8	0xbfdbc7d2	-1.7170355
9	0xbf8b2e68	-1.0873537
10	0xbf3e0511	-0.7422648
11	0xbecac688	-0.39604592
12	0xbeb90107	-0.36133596
13	0xbed470c8	-0.41492295
14	0x3f60de4d	0.87839204
15	0xbfd8dce8	-1.6942415
16	0xbec366ff	-0.38164517
17	0xbfb382b3	-1.4024261
18	0xbe407505	-0.1879464
19	0xbf207579	-0.6267925
20	0xbf04cbfc	-0.51873755
21	0x3f56fcc7	0.8397946
22	0xbf81cb66	-1.0140197
23	0xbfe638c5	-1.7986075
24	0xbfc5647a	-1.5421288
25	0xbfbc4cff	-1.4710997
26	0xbd8d32c9	-0.06894452
27	0xbf0519fc	-0.51992774
28	0x3e921a54	0.28535712
29	0x3f25a5ae	0.6470593
30	0xbeb39bcf	-0.3507981
31	0x3f143e0a	0.57907164
32	0xbe910a74	-0.28328288
33	0x3f6ba65b	0.92050713
34	0xbefb69d6	-0.49104184
35	0x3e7250e0	0.23663664
36	0xbfb84e05	-1.439881
37	0xbe500a61	-0.20316459
38	0x3f9201b4	1.140677
39	0x3d7ddf24	0.06198038
40	0xbfd18861	-1.6369745
41	0xbe5f7538	-0.21822059
42	0xbfb7aff2	-1.4350569
43	0xbd9d6663	-0.07685544
44	0x3ecf63e3	0.40505895
45	0xc01860ee	-2.380916
46	0xbe9afdef	-0.3027186
47	0xbf89af38	-1.0756598
48	0xc004c32b	-2.074412
49	0xbf1c7bfa	-0.61126673
50	0xbfc1c21d	-1.5137364
51	0x3f992a71	1.1966077
52	0xbe8a25a8	-0.26981854
53	0xc005953b	-2.0872333
54	0xbeec8baa	-0.46200305
55	0xbfc2d305	-1.5220648
56	0x3d88dac1	0.06682349
57	0xbf87e593	-1.0616935
58	0xbfc4ba60	-1.5369377
59	0xc0301c76	-2.751737
60	0xbf529fc1	-0.82275015
61	0xbfe0630c	-1.7530227
62	0x3e9c2ca6	0.30502814
63	0x3f017a7d	0.5057753
64	0xbf72c5e6	-0.9483322
65	0xbf5fb4d0	-0.8738527
66	0x3e2c15d6	0.16805205
67	0xbb280f5e	-0.0025643925
68	0xbfa768cb	-1.3078855
69	0x3dfce291	0.123479016
70	0x3f652902	0.895157
71	0xbe77b86a	-0.24191442
72	0xbf5a328a	-0.85233366
73	0xbf333e92	-0.7001735
74	0x3dc0214a	0.093813494
75	0xbe74f8be	-0.23923013
76	0xbf2f8ba8	-0.68572474
77	0xbe05a293	-0.13050298
78	0x3ecef082	0.40417868
79	0xc015250e	-2.3303866
80	0xbee476c1	-0.44621852
81	0xbf31de1a	-0.69479525
82	0xc0809974	-4.018732
83	0x3f85f6fa	1.0465996
84	0xbfa429ce	-1.2825258
85	0xc05a51d9	-3.4112456
86	0xbf47788f	-0.7791833
87	0xc00d5781	-2.2084658
88	0x3dc2e20a	0.0951577
89	0xbff76e87	-1.9330605
90	0xbf85cc65	-1.0453001
91	0xbf792b76	-0.9733194
92	0x3ead62df	0.33864495
93	0xbefb9d97	-0.4914367
94	0x3ec13cb9	0.3774164
95	0xbfa15b90	-1.2606068
96	0xbfed8ecd	-1.8559204
97	0xbf4d2773	-0.8013832
98	0xbe97c495	-0.29642168
99	0xbfb9e23a	-1.4522164
100	0xbfe4416f	-1.7832469
101	0xc0089a5c	-2.1344213
102	0xbf603934	-0.87587285
103	0xbf5ce71e	-0.86290157
104	0xbee473e7	-0.44619676
105	0xc0106b72	-2.256558
106	0xbf1bd377	-0.60869545
107	0xbff7ed29	-1.936925
108	0x3e48de14	0.19615966
109	0xbfa3be2d	-1.2792412
110	0xbfc45150	-1.5337315
111	0x3f3b57af	0.7318067
112	0xbf1ddf66	-0.61669004
113	0xc031fadb	-2.780936
114	0xbff651bf	-1.9243697
115	0x3e9c857a	0.30570585
116	0x3f21311e	0.6296557
117	0xbf3c36a3	-0.7352087
118	0x3e5840f8	0.21118534
119	0xc01e4f0a	-2.4735742
120	0xbf332a30	-0.6998625
121	0xbf082cef	-0.53193563
122	0xbe0d8ca0	-0.13823175
123	0xc0014ef6	-2.0204444
124	0xbf8b9026	-1.0903366
125	0xbf1941ef	-0.5986623
126	0x3f784ca5	0.9699195
127	0x3f211f57	0.62938446

layers.4.weight f4 [128]
0	0x3fba3a13	1.4548973
1	0x3f1122f3	0.56693953
2	0x40131b16	2.2985282
3	0x404600b1	3.0937922
4	0x404f1025	3.2353604
5	0x3f7ce5c5	0.987881
6	0x3f35ea6d	0.7106083
7	0xbfa8a8aa	-1.3176472
8	0x3f89ea19	1.0774566
9	0x3f177579	0.59163624
10	0x4041b7ce	3.0268435
11	0xbf840715	-1.0314661
12	0x40942904	4.630007
13	0x40075df6	2.11511
14	0x4013bb19	2.3082945
15	0x4017ddf6	2.3729224
16	0x40224bfa	2.5358872
17	0x3fc34a91	1.5257131
18	0xc001f892	-2.0307965
19	0x403ec87c	2.9809866
20	0x400d4ec8	2.2079334
21	0x3fa73fa5	1.3066298
22	0x3fff8783	1.996323
23	0xc01357f6	-2.3022437
24	0x3fdb8d07	1.7152413
25	0x404f387f	3.2378232
26	0x4007899f	2.1177747
27	0x40037dcf	2.0545537
28	0x3fff8428	1.9962206
29	0x403bafa7	2.932596
30	0x40367976	2.8511634
31	0x40898075	4.296931
32	0x403e021a	2.9688783
33	0x3f8ae470	1.0850964
34	0x403b5408	2.9270039
35	0x3fd422c5	1.6573111
36	0x3fc24186	1.5176246
37	0x4027cf35	2.622022
38	0x3f3f0f8a	0.74633086
39	0x3fd15eb7	1.635703
40	0x40744a08	3.8170185
41	0x403aaec0	2.916916
42	0xbf601b0b	-0.87541264
43	0xc010eaf9	-2.2643416
44	0x3fd03532	1.6266234
45	0x405e05db	3.4691074
46	0x407f2231	3.9864619
47	0x3fdbd312	1.7173789
48	0x3f106000	0.56396484
49	0x402000f8	2.5000591
50	0x40886e08	4.2634315
51	0x3faf0933	1.3674682
52	0x40375b70	2.864956
53	0x3fb31d6a	1.3993351
54	0x40332894	2.7993517
55	0x402a47e8	2.6606388
56	0x3ff6a240	1.9268265
57	0x3fd07502	1.6285708
58	0x3f91f1fe	1.1401975
59	0x3fd57a14	1.667788
60	0x3fe97071	1.8237439
61	0x3fe94605	1.8224493
62	0xbf935625	-1.1510664
63	0x3fb050db	1.3774675
64	0x4009755b	2.1477878
65	0x401d23c0	2.455307
66	0x3ffe5761	1.9870416
67	0x3fded7df	1.7409629
68	0xc046fccf	-3.1091802
69	0x400560aa	2.084025
70	0x3fe47424	1.7847943
71	0x3fd46b03	1.6595157
72	0x3fbbfef6	1.4687183
73	0x4084024e	4.1252813
74	0xbf9aedfa	-1.2103875
75	0xc01364ba	-2.3030229
76	0x40076230	2.115368
77	0x3f8f5caf	1.120016
78	0x4051bab6	3.277021
79	0x40a706e4	5.219591
80	0x3f836d47	1.0267724
81	0xc013ed27	-2.3113496
82	0xbedbee0d	-0.42955056
83	0x4006fbf9	2.1091292
84	0x40510dac	3.2664595
85	0x4040e2d7	3.0138452
86	0x400de8b9	2.2173293
87	0xbef5d9b2	-0.4801765
88	0x3f81c7f8	1.0139151
89	0x3ff5b2da	1.9195206
90	0x400885a3	2.1331565
91	0xbf2c51c0	-0.6731224
92	0x3fe40c36	1.7816226
93	0x3fd07241	1.6284868
94	0x3fce2c5a	1.6107285
95	0x40356fc2	2.8349462
96	0x3fc96e39	1.5736762
97	0xbe23e047	-0.16003524
98	0xc00d539a	-2.2082276
99	0x40022471	2.0334742
100	0x4001e033	2.029309
101	0xbf5e9ac5	-0.8695491
102	0x3fc07832	1.5036681
103	0x3fd816d8	1.6881971
104	0x3ff96257	1.9483136
105	0x3f027a08	0.50967455
106	0x40068e7a	2.102446
107	0xbfe94665	-1.8224608
108	0x40168e50	2.352436
109	0x407b0231	3.9220088
110	0xbfeed0ed	-1.8657509
111	0xc0373727	-2.8627412
112	0x408a385d	4.3193803
113	0x409f3bf2	4.9760675
114	0x404576d7	3.0853784
115	0x3f294c07	0.66131634
116	0x3f85715f	1.0425223
117	0x4015f9ce	2.3433719
118	0xc02df55b	-2.7181003
119	0xbee29c8b	-0.44260058
120	0x401daebd	2.4637902
121	0x4034f09e	2.827186
122	0x401fe174	2.4981356
123	0x4040e399	3.0138915
124	0x3fce8231	1.6133481
125	0x40053a82	2.081696
126	0x40174313	2.363469
127	0x3f950443	1.1641926

layers.4.bias f4 [128]
0	0x3f2441fe	0.64163196
1	0x3f827131	1.0190793
2	0x3f554e4f	0.83322614
3	0x3eb44a62	0.35213
4	0x3fe2b0f3	1.7710251
5	0x3d10e83f	0.035377737
6	0x3f966013	1.174807
7	0x3fd65235	1.6743838
8	0x3ed0c551	0.4077554
9	0xbe7bcbae	-0.24589416
10	0x3f862cf2	1.0482466
11	0xbd3fb0c8	-0.04679945
12	0x403a9c61	2.9157946
13	0xbedd8cf3	-0.43271598
14	0x3e9891b9	0.29798678
15	0x400d7d4a	2.210772
16	0x40172691	2.361729
17	0x40177aa5	2.3668606
18	0x3f41b5cb	0.7566802
19	0x40414120	3.0196
20	0x3f5dcee4	0.86643815
21	0xbcf3c01f	-0.029754696
22	0x3ea40d50	0.32041407
23	0xbd702c08	-0.05863574
24	0xbfc11140	-1.5083389
25	0xbe7e4037	-0.24829184
26	0x3fcaea10	1.585268
27	0x3feb6fc9	1.8393489
28	0xbf0afa03	-0.5428774
29	0x3f2ddbaf	0.67913336
30	0xbf38d54f	-0.72200483
31	0x3e98e853	0.2986475
32	0x3fbed0ea	1.4907506
33	0xbfff14d0	-1.9928226
34	0x3e964509	0.29349545
35	0x3f9ad5f5	1.2096545
36	0x3fb0e814	1.3820825
37	0x3fad8ac4	1.3557973
38	0x3f41cded	0.7570484
39	0x3f67ef4f	0.9059953
40	0x3f895e2d	1.0731865
41	0x4053be04	3.3084726
42	0x40028bb9	2.039778
43	0xbf36b409	-0.7136846
44	0x40131431	2.2981074
45	0x403e75ba	2.9759355
46	0x402230a7	2.5342195
47	0x3f7de4d1	0.9917727
48	0xbecdff67	-0.4023392
49	0x3e4bd808	0.19906628
50	0x3dd60fa6	0.104522035
51	0x3f220b34	0.63298345
52	0x3f8e5970	1.1121044
53	0x3eb1f644	0.34758198
54	0xbf1fea58	-0.62466955
55	0x3f9c0cdf	1.2191428
56	0x3f5a60d5	0.85304004
57	0x3d724060	0.059143424
58	0x3f88fafc	1.0701594
59	0x3e76a31e	0.24085662
60	0x3f8c18e6	1.0945098
61	0x3dbfc2c3	0.0936332
62	0x3f61e244	0.8823588
63	0xbf9ad8ae	-1.2097375
64	0x3f321c64	0.6957457
65	0x3f198e58	0.59982824
66	0x3e48338c	0.19550914
67	0x3fa13bb0	1.259634
68	0xbf32c009	-0.6982427
69	0x3feb4017	1.8378934
70	0xbdf1ef70	-0.11813247
71	0x3c9d278e	0.0191839
72	0x3e9be905	0.30451217
73	0xbe422aa8	-0.18961585
74	0x3ef1bea9	0.47215775
75	0xbefe176b	-0.49627241
76	0x3ec44472	0.3833347
77	0xbecb453b	-0.39701256
78	0x3f89e1f3	1.0772079
79	0x3f01bffc	0.5068357
80	0x3ec414fc	0.3829726
81	0x3efc5d35	0.4928986
82	0xbcf176dd	-0.029475624
83	0x3f6d1ecf	0.92625135
84	0x3fdd9375	1.7310625
85	0x3ecc62ef	0.3991923
86	0x3f0ef4e4	0.55842423
87	0xbdaecbb5	-0.08534948
88	0x3f72263f	0.9458961
89	0x3fc00ee8	1.5004549
90	0x3f99da5b	1.2019762
91	0x3fc3f92f	1.531042
92	0x3edc8538	0.43070388
93	0x3f8f26cd	1.1183716
94	0x3f5f7e59	0.87302166
95	0x401f97fb	2.4936512
96	0x3eaa2977	0.3323476
97	0x400c1715	2.1889088
98	0x3f879e3e	1.0595167
99	0x3fe1b62b	1.7633718
100	0x3f970907	1.179963
101	0x3f5ed62a	0.8704554
102	0x3e4f375f	0.20235966
103	0x3f925543	1.143227
104	0x3fa6cb68	1.3030825
105	0x3eba40ad	0.3637747
106	0x3f587697	0.84555954
107	0x3f18b552	0.5965167
108	0x3f672d30	0.90303326
109	0x4030d434	2.7629519
110	0x3f08c305	0.53422576
111	0xbf945496	-1.1588314
112	0x4022c633	2.5433471
113	0x3fb7a0ce	1.4345949
114	0x3f96b3a4	1.1773572
115	0xbe0b2884	-0.13589674
116	0x3f6bc97b	0.9210431
117	0xbe2c67d3	-0.16836481
118	0xc0144bbc	-2.3171225
119	0x3fa1f5b4	1.2653108
120	0x3ffbf022	1.9682658
121	0x3f2223b0	0.63335705
122	0xbf1c356f	-0.61019033
123	0x3fa4dcde	1.2879903
124	0x3eefe7e0	0.46856594
125	0x404140d5	3.019582
126	0x3fcb4676	1.5880878
127	0x3fc5ac15	1.544314

layers.4.running_mean f4 [128]
0	0x40675c8d	3.6150239
1	0x3e56e5e9	0.20986141
2	0x41018d01	8.096925
3	0x3c5e55f5	0.013570298
4	0x3f5aad2e	0.854205
5	0x405a6c38	3.4128551
6	0x3e5f417e	0.21802327
7	0x4102342d	8.137738
8	0x40d44619	6.633557
9	0x391aa6dc	0.00014748744
10	0x3e469061	0.19391014
11	0x4123ddcb	10.241649
12	0x41331e3d	11.194882
13	0x40491e2a	3.142466
14	0x402c400b	2.6914089
15	0x405a49ad	3.4107468
16	0x4027e8dc	2.6235876
17	0x40ee3a94	7.4446507
18	0x40ca130e	6.314826
19	0x40338915	2.8052418
20	0x3ef7fe60	0.4843626
21	0x40b073db	5.5141425
22	0x40ba9102	5.830201
23	0x4056dca2	3.3572164
24	0x407be42d	3.9358017
25	0x3e406d4e	0.18791696
26	0x4149a78b	12.603404
27	0x41500c4e	13.003004
28	0x3d5269da	0.05137048
29	0x40bd2086	5.91022
30	0x3efc6da2	0.49302393
31	0x3ff24d0b	1.8929762
32	0x402dfee0	2.7186813
33	0x40ec54dd	7.3853593
34	0x3e0699eb	0.13144653
35	0x4072d23f	3.7940824
36	0x412c3449	10.762765
37	0x406889aa	3.6334023
38	0x407f3c15	3.988042
39	0x41063d4d	8.389966
40	0x40704fbc	3.7548666
41	0x4123105e	10.191496
42	0x3e17f66b	0.14840095
43	0x411f15b1	9.942796
44	0x414723e2	12.44626
45	0x3fd51c8a	1.6649334
46	0x40969832	4.7060785
47	0x3f44226c	0.76615024
48	0x349a006f	2.868505e-07
49	0x3c6f614b	0.014610599
50	0x00000004	6e-45
51	0x40f7c8d0	7.7432632
52	0x3caeadac	0.021323048
53	0x3ba64965	0.0050746673
54	0x39c30ad7	0.00037201375
55	0x40abc8d7	5.3682666
56	0x416d3bc5	14.827092
57	0x4014787a	2.3198533
58	0x4119b38a	9.606333
59	0x3b25be28	0.0025290344
60	0x414566fe	12.337645
61	0x3f88735d	1.0660206
62	0x413b0894	11.689594
63	0x40473b73	3.1130035
64	0x40d562f1	6.668328
65	0x3f0e5b9b	0.5560853
66	0x40e25f76	7.074153
67	0x413bde55	11.74178
68	0x40058c27	2.0866792
69	0x37312239	1.055799e-05
70	0x40e4dea1	7.1521764
71	0x4116373d	9.388486
72	0x40fd87d1	7.922829
73	0x3d7c1174	0.061540082
74	0x4011e913	2.2798507
75	0x415ed88e	13.92787
76	0x3f8666d0	1.0500126
77	0x40cb21b7	6.3478656
78	0x410534bc	8.325375
79	0x3e8a7f0b	0.2705005
80	0x416f712a	14.965128
81	0x40144f25	2.3173306
82	0x3c304dac	0.010760706
83	0x40325bb5	2.7868474
84	0x405d8a6c	3.4615736
85	0x3f87868b	1.0587934
86	0x40effbc6	7.499484
87	0x3d08894d	0.033334065
88	0x407f5fae	3.9902148
89	0x00000004	6e-45
90	0x4088a6da	4.2703676
91	0x3f77817d	0.9668196
92	0x410bd58f	8.739638
93	0x4071d831	3.7788203
94	0x409d73f5	4.920405
95	0x40cf3bdc	6.476057
96	0x3d3dadfa	0.046308495
97	0x3c0a4b2c	0.008440774
98	0x40dbee14	6.8728123
99	0x3f5a5d02	0.8529817
100	0x409cbb94	4.8978977
101	0x3d4a4ad0	0.049387753
102	0x40b7e9af	5.747276
103	0x411fe458	9.993248
104	0x411ca08c	9.789196
105	0x3911534f	0.00013859312
106	0x4053d880	3.310089
107	0x3fee1d6b	1.8602728
108	0x414487bb	12.283137
109	0x3e955ee9	0.29173973
110	0x4024c6d7	2.5746362
111	0x4114edfc	9.308102
112	0x40744697	3.8168085
113	0x4002ed54	2.0457354
114	0x40704c57	3.7546594
115	0x4112f103	9.183841
116	0x41a4a8e2	20.582462
117	0x21338537	6.0823867e-19
118	0x40870660	4.219528
119	0x413a2177	11.63317
120	0x412ad2af	10.676436
121	0x3abf4893	0.0014593772
122	0x4117ef05	9.495854
123	0x3fb73353	1.4312538
124	0x4135c0c5	11.359563
125	0x410eb058	8.918053
126	0x413fb217	11.980979
127	0x4153f9bd	13.248471

layers.4.running_var f4 [128]
0	0x42c55171	98.659065
1	0x41453bb8	12.32708
2	0x434f3795	207.21712
3	0x4022e5f8	2.5452862
4	0x41725154	15.1448555
5	0x42d4cab8	106.395935
6	0x41408bca	12.034128
7	0x43a75a97	334.70773
8	0x4383cd5b	263.60434
9	0x3b83ae76	0.0040186
10	0x40caa075	6.332087
11	0x43da7c94	436.97327
12	0x43f56e92	490.86383
13	0x428cb000	70.34375
14	0x422334a5	40.80141
15	0x424e8777	51.63229
16	0x4242d756	48.71029
17	0x434fbe91	207.7444
18	0x436446a1	228.2759
19	0x42938746	73.764206
20	0x40e8e3f6	7.2778273
21	0x435553a8	213.32678
22	0x43061d6a	134.1149
23	0x428e97a7	71.296196
24	0x434b3e96	203.24448
25	0x3ffa68de	1.9563253
26	0x4412b900	586.8906
27	0x44190eb3	612.2297
28	0x40452ef5	3.080991
29	0x42ca1472	101.03993
30	0x41557bb9	13.342706
31	0x41cccb01	25.599123
32	0x421a8e39	38.63889
33	0x439c7c0d	312.96915
34	0x40a6e834	5.215845
35	0x42c6231a	99.06856
36	0x4417bf92	606.9933
37	0x428df88c	70.98544
38	0x4262a857	56.664394
39	0x438e6872	284.81598
40	0x437ba669	251.65004
41	0x43c5fec2	395.9903
42	0x415a3619	13.638207
43	0x43fc317f	504.3867
44	0x448d9882	1132.7659
45	0x42a53e19	82.621284
46	0x437ea066	254.62656
47	0x419df808	19.746109
48	0x3613acbd	2.2005254e-06
49	0x402c030c	2.687686
50	0x00000004	6e-45
51	0x43286535	168.39534
52	0x400644ac	2.0979414
53	0x3e29fc28	0.16600096
54	0x3ba0f870	0.0049124286
55	0x43884c37	272.59543
56	0x443f78e0	765.8887
57	0x425f7054	55.859695
58	0x43bd7eef	378.99167
59	0x3d7952ec	0.060870096
60	0x43b1a686	355.30096
61	0x418f200c	17.890648
62	0x43e15b3a	450.7127
63	0x426f423e	59.81469
64	0x43759d3c	245.6142
65	0x419073e6	18.056591
66	0x435042f8	208.2616
67	0x43b342f2	358.523
68	0x430e5e99	142.36952
69	0x3853cb5e	5.049572e-05
70	0x438fc8a5	287.56754
71	0x43c24124	388.5089
72	0x435a6fe6	218.4371
73	0x3fb1ed80	1.3900604
74	0x42e6ae5e	115.34056
75	0x4433bf1c	718.9861
76	0x4148e997	12.557029
77	0x43249413	164.57841
78	0x439ce3b9	313.77908
79	0x415337fa	13.201166
80	0x44655f31	917.48737
81	0x41f25563	30.291693
82	0x3fa2895f	1.2698172
83	0x42644fce	57.077934
84	0x42fc5f55	126.186195
85	0x41e8512c	29.039635
86	0x43b76258	366.7683
87	0x402b61d2	2.6778455
88	0x429c5b3c	78.17819
89	0x00000004	6e-45
90	0x42c1d318	96.91229
91	0x42166e8e	37.607964
92	0x4359f94a	217.97379
93	0x42b63db4	91.120514
94	0x42c66290	99.192505
95	0x4340f062	192.939
96	0x41096bda	8.588831
97	0x3f366476	0.7124704
98	0x43a48a35	329.07974
99	0x4284ebb1	66.460335
100	0x43334086	179.25204
101	0x414a6eae	12.652021
102	0x4307694b	135.4113
103	0x43cdd38a	411.65265
104	0x43ae2dca	348.35773
105	0x3b131673	0.00224438
106	0x42e8788e	116.23546
107	0x4281bb03	64.86526
108	0x43f068b1	480.8179
109	0x411e5b35	9.897267
110	0x425acc63	54.699596
111	0x43de717b	444.88657
112	0x43e2332e	452.39984
113	0x42544652	53.068672
114	0x43139155	147.5677
115	0x43594929	217.28578
116	0x44655a95	917.41534
117	0x2312fd2f	7.9682896e-18
118	0x431995ef	153.58568
119	0x44783709	992.8599
120	0x448aee8e	1111.4548
121	0x3cd9d579	0.02659105
122	0x4362c284	226.75983
123	0x42caf717	101.4826
124	0x44241886	656.3832
125	0x43b4ac3e	361.34564
126	0x440b7eea	557.98303
127	0x44217ffb	645.9997

layers.5.weight f4 [64, 128]
0	0x3e206fe6	0.15667686
1	0x3f2986d3	0.6622135
2	0xc070353e	-3.7532496
3	0x3f7782da	0.9668404
4	0xbf9fd009	-1.2485362
5	0x3fef75d8	1.8707838
6	0x3f98530d	1.1900345
7	0xbe0bca8f	-0.13651489
8	0xbfba03bf	-1.4532393
9	0x3ecbe34d	0.39821854
10	0x40273a8f	2.6129491
11	0x3f550ce5	0.832228
12	0xc028e11e	-2.63874
13	0xbee8ead6	-0.45491666
14	0xc0174feb	-2.3642528
15	0x3fcbf6b2	1.593466
16	0x3f9a8189	1.2070781
17	0xbf9c7686	-1.222367
18	0xc033b27b	-2.8077686
19	0x3f81dd94	1.0145745
20	0x3d7dd699	0.061972234
21	0x40004a58	2.0045376
22	0x3fa0dd54	1.2567544
23	0xbf6dbe46	-0.9286846
24	0x3fe050c1	1.7524644
25	0x3eef50ed	0.4674143
26	0x3fbdeeb5	1.4838473
27	0x3fabcabc	1.3421245
28	0x3f5f2155	0.87160236
29	0xbf9918a2	-1.1960642
30	0xbed0c898	-0.4077804
31	0x3e030bb6	0.12797436
32	0xc048d7e9	-3.138178
33	0x3f58968e	0.8460473
34	0xc0519688	-3.2748127
35	0xbe3a1a91	-0.18174197
36	0xbf2912a0	-0.66044044
37	0xbf8319a9	-1.0242206
38	0xbe1ee351	-0.15516402
39	0xc056fe99	-3.3592894
40	0x3cee3ddd	0.029082233
41	0xbffff4f9	-1.9996635
42	0xc01ca70a	-2.4476953
43	0xbd763766	-0.060111426
44	0xbf30f0d4	-0.69117475
45	0xbff0d832	-1.8815978
46	0xbfd26f6d	-1.6440254
47	0xbfc6e61a	-1.5538971
48	0x3f13a91c	0.57679915
49	0x3f440c9b	0.76581734
50	0xbfef6398	-1.8702269
51	0xbf912a85	-1.1341101
52	0xc01cc481	-2.4494936
53	0xbf82fff2	-1.0234358
54	0x3feab84d	1.8337494
55	0x3ee43042	0.44568068
56	0x3f01ca9d	0.5069979
57	0x3fca16d1	1.5788213
58	0xbdb1afe3	-0.08676126
59	0x4007526e	2.114406
60	0x40402f5a	3.00289
61	0xbe93d9e4	-0.28877175
62	0xbfb76f8d	-1.4330918
63	0x40424492	3.0354352
64	0xbf45beab	-0.7724406
65	0xc00d6add	-2.2096474
66	0xbe9a8262	-0.301776
67	0xbe2b6437	-0.16737448
68	0x4009032c	2.1408186
69	0xc045e277	-3.0919473
70	0xbe9795f4	-0.29606593
71	0x405a6883	3.412629
72	0x40639afb	3.5563343
73	0x3e8df30b	0.2772449
74	0xbf9d2231	-1.2276059
75	0xbefd9b8d	-0.49532738
76	0x3f40b739	0.75279576
77	0xbf27522e	-0.6535977
78	0xc02b7a68	-2.679346
79	0xbfa2a519	-1.2706634
80	0x400d32e3	2.2062309
81	0xbed14ffe	-0.40881342
82	0x3ffa3b1f	1.9549292
83	0x4032b030	2.7920036
84	0xc081bbd9	-4.0541806
85	0x3f634194	0.8877194
86	0x3ecae6b1	0.3962913
87	0xbf0504bd	-0.51960355
88	0xbfb50895	-1.4143244
89	0xbffb4da1	-1.9633065
90	0x3fb6a85a	1.4270127
91	0xbfa3e13c	-1.2803111
92	0xbf9a9bc9	-1.2078792
93	0x3f0a0d1a	0.5392624
94	0xbf68901c	-0.90844893
95	0xbfe0bf63	-1.7558407
96	0xbeadf5d8	-0.33976626
97	0xbe5d5b10	-0.21616769
98	0x3f6f68c3	0.9351923
99	0xbd61b82e	-0.055107288
100	0xbf226ad0	-0.6344423
101	0xbeaab32c	-0.33339822
102	0xbff090ac	-1.879415
103	0xbec8957c	-0.39176548
104	0xbfc86e3f	-1.5658644
105	0x3e2d8874	0.16946584
106	0x3f4ed625	0.8079551
107	0xc02407e7	-2.5629823
108	0xbfd50113	-1.6640953
109	0x3fe1ac78	1.7630758
110	0xc0343eb5	-2.8163273
111	0xbbd94dca	-0.0066315876
112	0xc02fafea	-2.745112
113	0x3e1e45ff	0.15456389
114	0x3fb38405	1.4024664
115	0x3fa8e091	1.3193532
116	0xbec79d4e	-0.389872
117	0x3e966bb5	0.2937905
118	0x3fdaad9f	1.7084235
119	0x3e94cf40	0.2906437
120	0xc08f16a3	-4.4715133
121	0x3f4172e1	0.75565916
122	0xbfb00968	-1.375287
123	0x3e199400	0.14997864
124	0x3e791930	0.24326015
125	0xc033a70f	-2.8070714
126	0x3dedccbc	0.116113156
127	0x3d01c00b	0.031677287
128	0xbe5555e3	-0.20833544
129	0xbf9a6f33	-1.2065185
130	0xbf3179ff	-0.69326776
131	0xbf0f3bc5	-0.55950576
132	0xbf51e3f4	-0.81988454
133	0xbf7ea94e	-0.9947709
134	0x3f026ab1	0.5094405
135	0xbfb599d2	-1.4187567
136	0x401b105c	2.4228735
137	0xc026f5fe	-2.6087642
138	0xc030b7d1	-2.7612193
139	0xbf753e2a	-0.9579798
140	0xbf367e6b	-0.7128665
141	0xbd490b14	-0.04908283
142	0x3f64fb4f	0.89445966
143	0xbfaa8521	-1.3321878
144	0xbf5ee5a5	-0.8706916
145	0x3ee194cd	0.44058838
146	0x3f866816	1.0500515
147	0xc0172193	-2.3614242
148	0x40b6086f	5.6885295
149	0xbfcb5e80	-1.5888214
150	0x3f5f1040	0.8713417
151	0x3f969118	1.1763029
152	0xc02ce337	-2.701368
153	0xbfdc6f0b	-1.7221388
154	0x3a394c4f	0.0007068561
155	0xbfacdb65	-1.3504454
156	0xbfcb1e78	-1.5868673
157	0x3fb1f819	1.3903838
158	0x3d150ab4	0.03638716
159	0x40753e4a	3.8319268
160	0xbfaf3ae1	-1.3689843
161	0xbf619f0e	-0.88133323
162	0x3e825ca3	0.254613
163	0xc0391f9e	-2.8925548
164	0x3ee90ab7	0.45515987
165	0x3ea16453	0.31521854
166	0x3f19f308	0.6013646
167	0x3f54b96d	0.8309544
168	0x3f84ce1c	1.03754
169	0x3f7b952b	0.9827449
170	0x40334969	2.8013556
171	0x3f7cc557	0.98738617
172	0xbf921ec4	-1.1415639
173	0x3fb939c0	1.4470749
174	0x3f9ac1b0	1.2090359
175	0xbfc635eb	-1.5485204
176	0xbd968310	-0.07349217
177	0xbfb33f30	-1.4003658
178	0xc07217ab	-3.7826946
179	0x3f95ce6d	1.1703621
180	0x3e477b19	0.19480552
181	0x3f7c18f9	0.98475605
182	0xbfce9bbf	-1.614128
183	0x3e8df1b5	0.2772347
184	0x3ed6fcbc	0.41989696
185	0xbfcf9aa1	-1.6219064
186	0xbe8d1be7	-0.2756035
187	0x3e574e92	0.21026066
188	0xbfbd08c9	-1.4768306
189	0x4006f9d7	2.108999
190	0x40011a86	2.0172439
191	0xc015760a	-2.3353295
192	0xbec01028	-0.37512326
193	0x3f494433	0.7861969
194	0xbf896735	-1.0734621
195	0xbf65c859	-0.8975883
196	0xc05dc002	-3.4648442
197	0xbf30b80f	-0.6903085
198	0x40237543	2.554032
199	0xbf6d13c0	-0.9260826
200	0xbffe4de0	-1.9867516
201	0xc017aaa1	-2.3697894
202	0x3ff415e9	1.9069186
203	0x3f13562e	0.57553375
204	0x3f452622	0.7701131
205	0x3fe9425d	1.8223377
206	0x3fafdd2b	1.373937
207	0xbd6efef7	-0.058348622
208	0xbf863420	-1.0484657
209	0xbf131bc1	-0.57464224
210	0xbf65307b	-0.895271
211	0xc07f789a	-3.991736
212	0x3f214b96	0.6300596
213	0xc0257011	-2.584965
214	0xbffe4ead	-1.986776
215	0xbf6f4c77	-0.9347605
216	0x401f3ddd	2.4881508
217	0xbf89fa76	-1.077956
218	0xc06d33b2	-3.7062802
219	0x3da1f698	0.07908362
220	0x3fd7681f	1.682865
221	0x3d830cff	0.06398963
222	0x3ee25345	0.44204155
223	0xbe40fa0b	-0.18845384
224	0xc08b2140	-4.347809
225	0x3f9f0bba	1.2425454
226	0xbf211153	-0.6291706
227	0xbf8be9aa	-1.0930684
228	0x4002285e	2.0337138
229	0x3f3ab879	0.7293773
230	0x3facf16b	1.3511175
231	0xbe0bebb1	-0.13664128
232	0x40508e2a	3.258677
233	0xbf42af46	-0.76048696
234	0xc00bf409	-2.1867697
235	0x4048e137	3.138746
236	0xbfb5808c	-1.4179854
237	0xbf9a20b6	-1.2041233
238	0x3ea6349e	0.3246202
239	0x401968f7	2.3970315
240	0x3e8a2ae1	0.2698584
241	0xbf360656	-0.7110342
242	0x3f86490f	1.0491046
243	0x3f8c34ed	1.0953652
244	0x3f968c96	1.1761653
245	0xbf8dbd7b	-1.107345
246	0xc00e1035	-2.2197392
247	0xbe752eda	-0.23943654
248	0xbf6fd310	-0.9368143
249	0xbecb05ad	-0.39652768
250	0x3ed0ce2d	0.407823
251	0x400e35e6	2.2220397
252	0x3f45853e	0.77156436
253	0x3f723cfc	0.94624305
254	0xbf07d7e4	-0.530638
255	0x3d2da791	0.042396132

layers.5.bias f4 [64]
0	0xbf859c44	-1.0438313
1	0xbc0a0a0c	-0.008425247
2	0x3fa501de	1.2891195
3	0xbfa5dd01	-1.295807
4	0x3f32be10	0.6982126
5	0x3f68e117	0.9096846
6	0xbed68f8c	-0.41906393
7	0x3f3a99a5	0.7289069
8	0xbfff9982	-1.9968722
9	0x3f669cc7	0.90082973
10	0x3cf9f169	0.030510621
11	0x3f7dccd2	0.99140656
12	0x3e13a73e	0.14419267
13	0xbea64f2d	-0.3248228
14	0x3f382047	0.7192425
15	0xbf919f31	-1.1376706
16	0x3ea53729	0.32268646
17	0x3f22990f	0.635148
18	0x3e971266	0.29506224
19	0x3edb8184	0.4287225
20	0x3e09e698	0.13466871
21	0x3e7c2560	0.24623632
22	0x3ea6a99f	0.32551286
23	0xbfb4c57e	-1.412277
24	0xbf708134	-0.9394715
25	0xbe97b764	-0.29632103
26	0xbf88307b	-1.0639795
27	0xbf7fc4df	-0.99909776
28	0x3f490b64	0.78533006
29	0x3ef4351b	0.47696766
30	0xbdf05d57	-0.11736553
31	0xbf4a2086	-0.78955877
32	0xbfae8356	-1.363383
33	0x3f513dfe	0.8173522
34	0x3f347e0d	0.7050484
35	0xbfccda52	-1.6004126
36	0xbf92062d	-1.1408135
37	0x3e73917e	0.2378597
38	0xbf9a4561	-1.2052423
39	0x3f927e4e	1.1444795
40	0xbfdf11e2	-1.7427332
41	0x3e2761c8	0.16345894
42	0xbfc92353	-1.5713905
43	0xc01b0647	-2.4222581
44	0xbfa90360	-1.3204155
45	0xbf860cdf	-1.0472678
46	0x3f03de2f	0.515109
47	0xbf9baecc	-1.2162719
48	0x3f436b41	0.7633553
49	0xbf8965cc	-1.0734191
50	0x3dfc8dde	0.123317465
51	0x3f1d6886	0.61487615
52	0xbe01dd51	-0.12682082
53	0xbf615dfc	-0.88034034
54	0x3f861caa	1.0477498
55	0x3f29c74d	0.66319734
56	0xbf7037c0	-0.9383507
57	0xbf44fe72	-0.7695075
58	0x3f80b11d	1.0054051
59	0xbdef7726	-0.11692648
60	0x3f385782	0.72008526
61	0xbfb18381	-1.3868257
62	0xbfca6569	-1.5812198
63	0xbf9459c9	-1.15899

layers.8.weight f4 [64]
0	0x4003c0a1	2.0586321
1	0xbe5d2a1d	-0.21598096
2	0x3f256d2c	0.6461971
3	0xbdae9e6b	-0.085263096
4	0x3f31c498	0.69440603
5	0x3fa0a635	1.2550722
6	0xbf035c3c	-0.51312613
7	0x3f4eadc9	0.80733925
8	0xbd1a99f9	-0.037744496
9	0x3f305270	0.6887579
10	0xbf03388e	-0.5125817
11	0x3f6c25c6	0.9224514
12	0x400cdc20	2.2009354
13	0xbc96acad	-0.018392885
14	0x3e33d0d0	0.17560124
15	0x3f2c5fc9	0.67333657
16	0x3f503ce0	0.8134289
17	0x3f75f945	0.9608348
18	0x3e2b3e20	0.16722918
19	0x4066ba4e	3.6051211
20	0x40090b3d	2.141311
21	0x3d858373	0.065192126
22	0xbefb78d1	-0.49115613
23	0xbe7a52ed	-0.24445696
24	0x3f82f96d	1.0232369
25	0x3e83ea13	0.25764522
26	0x3ebb32c5	0.36562172
27	0x40536043	3.3027503
28	0x3ef30e11	0.4747167
29	0x3e9ffb6f	0.31246516
30	0x3de77cce	0.113031015
31	0x3f1cffe5	0.61327964
32	0x3e9bb0e3	0.3040839
33	0xbe9019fe	-0.2814483
34	0xbe496777	-0.19668375
35	0x3e000d56	0.12505087
36	0x3e3f5f40	0.18688679
37	0x3f6f7138	0.93532133
38	0x3fddf677	1.734084
39	0x3ef1c318	0.47219157
40	0x3f5892b6	0.84598863
41	0x3e477b93	0.19480734
42	0xbdafaf99	-0.085784145
43	0x3e4f3df2	0.20238474
44	0x3f369faa	0.7133738
45	0x3f962abb	1.173179
46	0xbf7a0a8f	-0.9767236
47	0x3efa17d3	0.488463
48	0xbf1324bb	-0.5747792
49	0x3e4648dd	0.19363733
50	0x3ecc4c17	0.39901802
51	0xbe9f593b	-0.31122765
52	0x3f48fa50	0.78506947
53	0x3d81b035	0.06332437
54	0x3f9ba5f1	1.2160016
55	0x3f50e1c3	0.81594485
56	0x40239907	2.556215
57	0x3e490b17	0.19633137
58	0xbe964a7e	-0.29353708
59	0xbc6c058c	-0.014405619
60	0x3fe3665c	1.7765613
61	0x4003a240	2.056778
62	0x3f1bc1fb	0.60842866
63	0x40825ec3	4.0740676

layers.8.bias f4 [64]
0	0x3ec70d34	0.3887726
1	0x3d67e0e5	0.05661096
2	0x3e80aff9	0.25134256
3	0x3e83fe35	0.25779882
4	0xbda969dd	-0.08272145
5	0x3eafb79d	0.34319773
6	0xbe1d9a04	-0.15390784
7	0x3e80156b	0.2501634
8	0x3d996133	0.074892424
9	0x3e8642b0	0.26222754
10	0xbe6ebfa9	-0.233153
11	0x3e4170bc	0.18890661
12	0x3e8a5faf	0.27026126
13	0x3e401c25	0.18760736
14	0x3e82d107	0.255501
15	0x3c1ab732	0.009443091
16	0x3d163e55	0.03668054
17	0x3ed3bbac	0.4135412
18	0xbea97b10	-0.33101702
19	0x3f0ffba8	0.5624337
20	0x3df74526	0.12073736
21	0x3f00505c	0.5012262
22	0xbeaeab30	-0.3411498
23	0x3e371eb9	0.17882814
24	0x3f0cb98d	0.5497063
25	0x3ec73cd1	0.38913587
26	0x3d49d512	0.049275465
27	0x3ed18d41	0.4092808
28	0x3cfc8dbd	0.030829305
29	0xbebb20b9	-0.36548403
30	0xbf10a2b8	-0.5649829
31	0x3f24de21	0.6440144
32	0x3d40e136	0.047089778
33	0xbea857c6	-0.32879466
34	0xbda9e6a6	-0.08295946
35	0xbe1fd276	-0.15607628
36	0xbeb33003	-0.34997568
37	0x3e6befd9	0.23040713
38	0x3ee732c0	0.45155907
39	0x3e700e21	0.2344289
40	0x3ec53647	0.38517973
41	0x3c6fdd1b	0.014640118
42	0xbdebb06c	-0.11508259
43	0x3e998aa1	0.29988578
44	0xbe36ff38	-0.17870796
45	0x3f265f90	0.64989567
46	0xbece21d5	-0.40260187
47	0x3ed88cc3	0.42294893
48	0xbdda769c	-0.10667154
49	0xbe352c37	-0.17692648
50	0xbd78ff15	-0.06079014
51	0xbe475887	-0.19467364
52	0x3ea095b7	0.31364223
53	0xbedc2720	-0.429986
54	0x3ee79c8e	0.4523663
55	0x3ebd5f2c	0.36986673
56	0x3f059dfe	0.521942
57	0xbe4ebb73	-0.20188694
58	0x3d9b5d6f	0.075861804
59	0x3f2e820e	0.681672
60	0x3e97cddc	0.29649246
61	0x3ee7da0a	0.45283538
62	0x3e802871	0.25030854
63	0x3f17fe61	0.59372526

layers.8.running_mean f4 [64]
0	0x3f8c1b3d	1.0945812
1	0x41ca75e6	25.307568
2	0x41ef1eb5	29.889994
3	0x3a14d411	0.00056773523
4	0x42029734	32.64766
5	0x40c21e4c	6.0661983
6	0x4128ffbb	10.562434
7	0x41a93899	21.152636
8	0x3f68875b	0.90831536
9	0x415f430a	13.953867
10	0x414a5e52	12.648027
11	0x41c1032d	24.12655
12	0x419dd327	19.728102
13	0x3d0ea51a	0.034825422
14	0x41965278	18.790268
15	0x00000004	6e-45
16	0x41273144	10.449528
17	0x41f0ec0e	30.115261
18	0x422aa7c9	42.663853
19	0x3fea2d64	1.8295102
20	0x3fb21c86	1.3914955
21	0x4201302e	32.29705
22	0x4164673c	14.275204
23	0x1b2d29d8	1.4323745e-22
24	0x3f167bc2	0.5878259
25	0x41c06e7a	24.053944
26	0x00000004	6e-45
27	0x40c8c688	6.274235
28	0x4122a0f7	10.164298
29	0x4105430e	8.328871
30	0x4214f66e	37.240654
31	0x419b8ee4	19.44477
32	0x41eca542	29.580692
33	0x41bdc3d8	23.720627
34	0x41a5243e	20.642696
35	0x00000004	6e-45
36	0x422ff2f8	43.987274
37	0x40a67847	5.2021823
38	0x3fdd9401	1.7310792
39	0x4162c49c	14.173
40	0x00000004	6e-45
41	0x41adc415	21.720743
42	0x00000004	6e-45
43	0x3b7a8d92	0.0038231355
44	0x390e011f	0.00013542593
45	0x41a06d13	20.053259
46	0x418d91f8	17.696274
47	0x00000004	6e-45
48	0x41b26788	22.300552
49	0x00000004	6e-45
50	0x41c33cbe	24.40466
51	0x40e06b1d	7.0130754
52	0x42325e47	44.592068
53	0x3d2040cd	0.0391243
54	0x41c474e6	24.55708
55	0x421e1e5a	39.52964
56	0x417aa942	15.666323
57	0x3c7161f5	0.014732827
58	0x41263f15	10.390401
59	0x3f970558	1.1798506
60	0x414263d7	12.149375
61	0x3f1b05ab	0.60555524
62	0x00000004	6e-45
63	0x3f31dd5c	0.6947839

layers.8.running_var f4 [64]
0	0x4350e085	208.87703
1	0x4516c4d7	2412.3025
2	0x45277835	2679.513
3	0x3bfd3165	0.0077268356
4	0x45390292	2960.1606
5	0x43b090c6	353.13104
6	0x44862020	1073.0039
7	0x44b70ae2	1464.3401
8	0x42c1b8cb	96.86092
9	0x441b4278	621.0386
10	0x4444b6b4	786.85474
11	0x451200d1	2336.051
12	0x44a4d4e7	1318.6532
13	0x3ffd9a6a	1.9812748
14	0x445c760a	881.84436
15	0x00000004	6e-45
16	0x449d508f	1258.5175
17	0x4521fb2a	2591.6978
18	0x458c21fb	4484.2476
19	0x42652016	57.281334
20	0x42fc1701	126.04493
21	0x454c8f05	3272.9387
22	0x4499a503	1229.1566
23	0x1bfaf0bd	4.1514604e-22
24	0x42595a11	54.337955
25	0x4506269c	2146.413
26	0x00000004	6e-45
27	0x43cd1dfd	410.23428
28	0x44042b49	528.67633
29	0x43eb8780	471.0586
30	0x45551f34	3409.9502
31	0x453c6220	3014.1328
32	0x45d07bb3	6671.4624
33	0x449ba914	1245.2837
34	0x44893a4f	1097.8221
35	0x00000004	6e-45
36	0x45c080fa	6160.122
37	0x43cfaa9b	415.33286
38	0x432894be	168.58102
39	0x44713a07	964.9067
40	0x00000004	6e-45
41	0x44622f9b	904.74384
42	0x00000004	6e-45
43	0x3e3108e0	0.17288542
44	0x39f1277c	0.0004599652
45	0x453efaba	3055.6704
46	0x44d3a4ae	1693.1462
47	0x00000004	6e-45
48	0x4500befb	2059.9363
49	0x00000004	6e-45
50	0x4556731c	3431.1943
51	0x43927f92	292.99664
52	0x45991af6	4899.37
53	0x4037d70b	2.8725002
54	0x44f322c1	1945.086
55	0x458a2042	4420.032
56	0x45068d9b	2152.8503
57	0x3e83a4e8	0.2571175
58	0x44566def	857.7177
59	0x4272aabd	60.666737
60	0x442308a4	652.135
61	0x426a9656	58.646812
62	0x00000004	6e-45
63	0x422d0726	43.25698
